model/keypoint_classifier/keypoint_classifier.tflite (tflite, 6808 bytes, 6 tensors)

sequential_3/dense_9/BiasAdd/ReadVariableOp f4 [21]
000000 25 40 f9 be d3 56 78 3d 0b ed a2 3e 02 fc ab be
       -0.4868175 0.060629677 0.31821474 -0.33590704
000010 91 51 be be 60 c8 5f bf 9a 88 a2 be 1a f9 e6 be
       -0.37171605 -0.87415123 -0.31744844 -0.45111924
000020 e3 d2 e5 be 74 1d 1c bf b8 3b 43 bf 17 94 01 bf
       -0.44887456 -0.6098244 -0.76263 -0.5061659
000030 02 5f cd be dd e6 21 bf 15 91 ba be a6 fc b4 be
       -0.40111548 -0.63242894 -0.36438814 -0.35349005
000040 c9 a5 f8 be eb 95 02 bf 0a 08 6f bf 5a 3d fd be
       -0.48563984 -0.51010007 -0.9337164 -0.4946087
000050 50 29 40 bf
       -0.7506304

sequential_3/dense_11/BiasAdd/ReadVariableOp f4 [4]
000000 b7 53 94 be c7 92 93 be 43 e0 31 3f f5 72 18 bd
       -0.2897012 -0.2882292 0.6948282 -0.037219007

sequential_3/dense_10/BiasAdd/ReadVariableOp f4 [10]
000000 a9 71 24 be d9 4b 0b 3f 36 b1 2c 3f 8b 91 3b bf
       -0.16058983 0.5441261 0.674579 -0.73268956
000010 35 73 b1 3e 79 78 c2 bd 76 0d 5c 3f 2b db fe 3d
       0.34658208 -0.094956346 0.8595804 0.12444147
000020 ce 73 d5 3c 48 74 14 be
       0.026056197 -0.14497483

sequential_3/dense_9/MatMul f4 [21, 42]
000000 e0 a7 e6 bc b8 4d 82 3d 58 8d 14 bd da b9 b4 3d
       -0.02815622 0.0636248 -0.03626761 0.08824511
000010 20 2d de bc a0 b1 b8 be 84 f7 af bc 24 5a ad be
       -0.027121127 -0.36073017 -0.02148033 -0.33857834
000020 5f 00 04 be 86 01 f1 be 5d 32 c8 bd ed f5 0d 3e
       -0.12890767 -0.47071475 -0.09775231 0.13863344
000030 27 00 28 bd 8c c3 7c bc 84 f5 5b bb 0b 2c 89 bd
       -0.04101577 -0.015427481 -0.0033563087 -0.06697854
000040 2b fb 2a bd fd 9a 91 bd 2a 30 d1 bc 3d ee da 3d
       -0.04174344 -0.0710964 -0.025535662 0.106899716
000050 6f 70 93 bc fe 5c 70 be 48 b5 0f be d4 e3 99 3d
       -0.017997948 -0.23472974 -0.14033997 0.07514158
000060 3c 7a 7b 3d a1 24 04 3f a9 59 4d 3c 53 32 9b 3d
       0.06139587 0.5161839 0.012533584 0.07577958
000070 35 11 36 bd 4c 27 07 be 4a ba fc bc ae 8c 92 3e
       -0.044450004 -0.13198584 -0.030850548 0.28622955
000080 83 75 8f 3e 42 7f 5c 3f e8 65 aa 3c 8d 0f 95 bb
       0.28019342 0.8613168 0.020800546 -0.004548973
000090 c8 aa 5d 3d f3 bd 2d be d2 94 e7 bd dc 45 a3 3e
       0.054117948 -0.16966991 -0.11307682 0.31889236
0000a0 b4 4e 32 3e 12 15 42 3f d7 97 62 be 70 b3 8a 3d
       0.17412835 0.758134 -0.22128235 0.06772506
0000b0 76 96 9c be 6b 5f 31 3e 80 3d 36 be aa 2b fc 3d
       -0.30583543 0.17321555 -0.17796898 0.12313016
0000c0 26 b6 d6 bd a6 3f 9f 3d 89 aa 9b bd 3d c2 e1 3d
       -0.10483961 0.07775812 -0.076008864 0.11023376
0000d0 06 be bf bd f5 79 33 3d fb d2 d2 bd 40 2a 04 be
       -0.09362416 0.04381748 -0.102941476 -0.12906742
0000e0 3d 64 28 3d 61 f2 9c be 3a 48 a9 39 1d 74 49 bf
       0.04111122 -0.3065367 0.00032288005 -0.786928
0000f0 48 b7 aa bd e5 24 29 3d 53 2c cc bd a8 ca 6d 3d
       -0.083357394 0.04129495 -0.09969392 0.058054596
000100 6a 22 b1 3d 5f f0 6e 3e 81 69 41 3e 3c 32 00 3f
       0.08649142 0.23333882 0.18887903 0.5007665
000110 d1 8f 8a 3c 2a 2e 26 3d 4a 58 0c be 68 82 c4 3d
       0.01691428 0.04057137 -0.13705555 0.095951855
000120 28 d1 2e 3b 25 48 de 3e fb 07 02 3f 00 c2 23 3f
       0.002667496 0.43414417 0.5079343 0.63967896
000130 89 b5 31 3d 4e d4 60 3d b5 43 a4 bd 01 44 27 3e
       0.043386016 0.05488997 -0.080207266 0.16334535
000140 dd cc e5 3d c9 11 3f 3e 65 27 96 3e 40 eb 8a 3e
       0.11220715 0.18659128 0.2932693 0.27132607
000150 07 95 4c be f0 20 a4 3c 4a a4 19 bf a9 22 d0 3e
       -0.19978724 0.020035237 -0.6001631 0.40651444
000160 a4 98 95 be 06 32 d3 3e a5 89 09 bf c3 e0 84 3e
       -0.29218018 0.41249102 -0.53725654 0.2595273
000170 f6 76 06 bf 8d 22 a2 3e cd de 43 bd ce 72 96 3e
       -0.5252527 0.31666985 -0.0478199 0.29384464
000180 d5 3b a2 3c 8a 3e 18 3e 9c be 7b 3d 6f 5a 18 bd
       0.01980392 0.14867607 0.061461076 -0.03719562
000190 5b b7 02 3c bb b8 43 be ea 13 dc 3d 8f d1 c7 3e
       0.007978286 -0.19113438 0.10745986 0.39027068
0001a0 33 16 33 3d 42 80 57 3d 11 b8 56 bd f5 ed 09 be
       0.043722343 0.05261255 -0.052421633 -0.1346968
0001b0 f1 2a a9 3e 98 7b 05 bf 52 56 99 bd 02 de bb 3e
       0.33040574 -0.52141714 -0.074871674 0.36692816
0001c0 16 68 d8 3d 71 57 20 3e 0d 0a 78 3e f2 57 dc be
       0.10566728 0.15658356 0.24222584 -0.43035847
0001d0 c5 b5 2f 3f 9f 99 32 bf 14 24 11 be 9f 25 8a 3e
       0.68636733 -0.6976566 -0.14173919 0.26981828
0001e0 e3 69 2f 3d 83 92 27 bd cb 9e b0 3e 9f 51 b5 be
       0.04282559 -0.04091121 0.3449615 -0.35413834
0001f0 2a 0e 33 3f 4b 1e 93 be e2 3f 62 3e 01 b3 8c be
       0.6994349 -0.2873405 0.22094682 -0.2748032
000200 70 b8 9d be f3 6d 0f be b7 15 74 be b2 91 88 bc
       -0.30804777 -0.14006786 -0.23836409 -0.016671035
000210 d8 cf 93 be 4a 8d 09 be f9 bb 01 bf 7e 34 d7 bd
       -0.2886951 -0.13432804 -0.5067745 -0.10508059
000220 91 53 63 3e 65 50 38 3e 07 36 09 3d 28 47 22 3d
       0.22199847 0.17999418 0.03349879 0.03961864
000230 73 bf 24 be b3 5a e0 3d f1 71 6c be 1c 9e 50 3e
       -0.16088657 0.109547995 -0.2309034 0.20372814
000240 8d db 8f 3e 75 59 77 3e c8 4f 6f 3d 92 c5 15 3d
       0.2809719 0.24155219 0.058425695 0.03656537
000250 36 b2 84 3e 6a a9 8b be bb 2c 96 3e 29 06 88 bd
       0.25917214 -0.2727769 0.29331002 -0.066418
000260 0e 88 6a 3e 8a cf 8d 3e ff 18 87 bd af f7 5e be
       0.22903463 0.27697402 -0.065965645 -0.21774171
000270 3e 0d c9 3e 6e 06 66 be 6b 70 46 3f 89 63 6d be
       0.39267915 -0.2246339 0.77515286 -0.23182501
000280 53 06 8d 3d 9e 15 86 3e 4a 8c f1 bd ca 9b 28 3c
       0.06885972 0.26188368 -0.11794336 0.010291049
000290 2a bc 1f 3e 63 bf aa be 4e 3c fd 3e 99 4d 15 bf
       0.15599123 -0.3334914 0.4946007 -0.5832153
0002a0 76 d3 6e 3e 30 0b c9 3d 44 10 14 be 5b 1e 73 3e
       0.23322853 0.09816587 -0.1445933 0.23742048
0002b0 e1 98 b2 bd 16 b5 09 3e 00 dc fc 3d 70 10 1f 3e
       -0.087205656 0.13447985 0.12346649 0.15533614
0002c0 1a f6 97 3e a7 85 0e 3e 6c ff 33 be d7 e8 d4 bd
       0.29679948 0.13918172 -0.17577904 -0.10395973
0002d0 80 28 86 be e5 33 b3 bd cb 31 9b be 0a 1b 06 be
       -0.26202774 -0.087501325 -0.30311427 -0.13096252
0002e0 aa 62 9e be c4 e3 08 bf 1e 1c b4 bd 09 c6 73 bd
       -0.3093465 -0.5347254 -0.087944254 -0.059515033
0002f0 7e 65 00 bd d6 82 84 3d 15 9a 10 3e 21 04 1e 3e
       -0.03134679 0.064702675 0.14121278 0.15431263
000300 12 af 91 3e d8 e9 da 3d 29 f9 54 3d 8e e1 a8 bd
       0.2845388 0.106891334 0.05199543 -0.08246146
000310 18 cf d2 bc 29 b7 d4 3d fa 50 a7 3d ff 4d fc 3d
       -0.025733516 0.103864975 0.08169742 0.12319564
000320 bf e2 0d 3e e4 13 7c 3d c7 ff b7 3d a2 59 75 bd
       0.13856028 0.061542407 0.089843325 -0.059899934
000330 03 95 17 bd 07 5b fd 3d 04 88 07 3d b8 8f f4 3d
       -0.037007343 0.12370878 0.0330887 0.11941475
000340 4f a9 b7 3d be 20 47 3c ea e5 25 3e 24 ca ff 3d
       0.0896784 0.012153802 0.16200987 0.12489727
000350 e2 6a 1a 3f 79 f7 2b bf 5b 17 a3 3e e3 e3 e5 be
       0.6031934 -0.6717449 0.31853756 -0.44900426
000360 4d 5b ba 3d 6f bf 02 bf 77 39 7a 3e 08 6d 66 be
       0.090994455 -0.51073354 0.24435984 -0.2250253
000370 5f 13 26 bd 65 6b 56 be c7 36 15 3e ed f6 63 bc
       -0.040545817 -0.20939405 0.14571677 -0.013913852
000380 c8 95 5b bd 87 06 d0 3d 23 66 8b bd 3b 42 34 3e
       -0.05360964 0.10157495 -0.068065904 0.1760339
000390 ae 49 d1 bd 5c 11 23 be ed 48 aa 3d 73 fc 47 bc
       -0.102191314 -0.15924591 0.08314691 -0.012206185
0003a0 9a 29 df 3c f8 24 4c 3d 2a 58 0f be 81 90 2a 3d
       0.027241517 0.049839944 -0.13998476 0.041641716
0003b0 06 05 a7 bd 1c 84 25 be a3 9a 2f 3e 1a bb 33 be
       -0.08155255 -0.16163677 0.17148833 -0.17551842
0003c0 77 a5 22 3e 29 09 d5 3d 68 dd 60 bd 24 00 70 3d
       0.15883432 0.10402138 -0.05489865 0.058593884
0003d0 8f ac 94 bd c9 97 68 be 72 46 8b 3e 64 70 04 be
       -0.072594754 -0.22714151 0.27202183 -0.12933499
0003e0 1a 69 75 3d 40 77 03 3d 7d ec 7c bd f7 f0 fa 3d
       0.059914686 0.032096148 -0.06174897 0.12252992
0003f0 2c e6 06 3e a4 62 ff bd 24 02 56 3e 33 43 3f 3d
       0.13173741 -0.12469986 0.20899254 0.046694946

sequential_3/dense_10/MatMul f4 [10, 21]
000000 83 04 2b 3f 10 42 2a be c6 e7 0b 3f 3a 57 28 3f
       0.6680376 -0.16626763 0.54650533 0.657581
000010 14 e7 be bc 9d 61 4c 3e f8 97 35 bd 3d 00 95 3f
       -0.023303546 0.19959112 -0.04433438 1.1640698
000020 7c 95 65 3f 69 d0 48 3e 63 fe f0 3e d6 6b 27 3f
       0.8968122 0.19610752 0.47069082 0.6539892
000030 bb 6d 6d 3e 34 af 85 3f b0 7a 1e 3f f7 7c ce 3e
       0.2318639 1.0444093 0.61905956 0.40329716
000040 bd e8 b8 bd b4 0e 26 3f e4 9f 13 3f c4 c0 b5 bd
       -0.09028766 0.64866185 0.5766585 -0.08874658
000050 d1 cc 4d 3d 86 31 bb 3e 7a da 06 3f 46 11 cf 3e
       0.050244156 0.3656122 0.5267712 0.40442866
000060 8b 03 04 3f 6d 86 ce 3b 18 05 e6 be 15 37 ce 3e
       0.51567906 0.006302646 -0.4492576 0.402764
000070 53 76 f4 3e 6e a6 f8 3e a5 75 ae be 51 36 d2 be
       0.47746524 0.48564476 -0.3407413 -0.41057065
000080 5b 21 32 3d fc 09 e9 be 2d fe 0d 3e 4d 38 23 3f
       0.04348884 -0.4551543 0.13866492 0.63757783
000090 c4 f1 68 3e f8 b9 6b be 2f ac aa 3e aa da f5 be
       0.22748476 -0.2302016 0.3333449 -0.4801839
0000a0 ef 54 f1 be 29 ba f4 be 63 41 13 bd d2 a3 5c be
       -0.47135112 -0.4779828 -0.03595103 -0.21546867
0000b0 af 61 12 3f e4 62 1c 3e 00 58 43 3e 2b 48 f7 3e
       0.57180303 0.15272099 0.19076538 0.48297247
0000c0 a6 10 11 bd 96 14 1a be ff 2e 03 bd c3 49 01 3e
       -0.035416268 -0.15046915 -0.03202724 0.12625794
0000d0 91 41 54 3e 5b 6a e4 3e c5 0d cd 3e f4 94 04 be
       0.20728137 0.44612393 0.40049568 -0.12947446
0000e0 0d ad 5c be 2c c5 21 3f 9d 2c ca 3e 2b bc 84 3b
       -0.21550389 0.63191485 0.39487162 0.0040507517
0000f0 72 a5 45 3f d2 0d 69 3f 49 e1 6d 3f 32 04 29 3c
       0.77205575 0.91036713 0.9292188 0.010315942
000100 df 02 8e bd 11 12 e6 3b c7 d3 06 bd 32 49 34 be
       -0.06934141 0.0070211967 -0.03291681 -0.17606047
000110 55 47 a8 bc 5a dd 42 be e2 47 d0 3d 06 cf a9 3d
       -0.020541826 -0.19029751 0.101699606 0.0829144
000120 2b d9 a2 be 6e 77 ae be 29 20 4c be 36 61 25 bc
       -0.3180631 -0.34075493 -0.19934143 -0.010093978
000130 95 55 a0 3d 3c 46 8d 3d 7b 6a 2d 3f cf 0d 8e 3f
       0.078288235 0.06898162 0.677406 1.1097964
000140 80 8a 85 be f8 94 74 3e ef ab e7 bb 72 ca f5 3d
       -0.2608223 0.23884952 -0.0070700566 0.12001504
000150 c3 38 69 bd 2d d5 96 bd 4d 90 dc 3d 0f 88 6c 3e
       -0.056938898 -0.07364879 0.10769711 0.23098777
000160 32 99 c1 be 04 9e 15 3f 9b 2f 69 be 58 44 23 3e
       -0.3781219 0.5844424 -0.22772066 0.1594404
000170 bc a2 07 3e 04 93 16 3e a2 a1 43 3f e3 77 52 3e
       0.13245672 0.1470452 0.7641851 0.20553546
000180 da 7a a1 3e 5b 2e 6d 3e 05 4f d8 3d ae 3e e3 be
       0.3153904 0.23162214 0.10561947 -0.44383758
000190 39 2f ba 3e 8b 51 85 3e 83 a9 81 3f a0 7e 82 3e
       0.36364153 0.26038775 1.0129856 0.25487232
0001a0 0d b9 d3 3e 8b ff 44 3f ee af e6 3e 02 a2 98 3e
       0.4135212 0.7695243 0.450561 0.29811102
0001b0 88 9e 23 3f 73 c1 0f be a5 8a 9d 3c b5 37 99 3e
       0.63913774 -0.14038639 0.01923115 0.29925314
0001c0 94 0e 02 be 2e 59 00 bf f6 2a 0a be e8 73 c8 3e
       -0.12700874 -0.5013608 -0.13492951 0.3915093
0001d0 67 65 47 bd 11 19 39 be 69 7f 32 3f 9b 40 1d bf
       -0.04868069 -0.18075968 0.6972566 -0.61426705
0001e0 a0 58 a1 bd fa c4 5b 3e e8 51 19 bf 87 f5 aa 3e
       -0.07878232 0.2146186 -0.59890604 0.33390447
0001f0 a4 31 9a bd 89 92 ed be 6c 65 bf be f5 51 b2 3e
       -0.075289994 -0.4640086 -0.37382066 0.34828153
000200 35 bd 22 3f 3d c3 ca bd f0 8a 78 3f 1c 19 43 be
       0.63569957 -0.0990052 0.97087 -0.19052547
000210 cd 8c d1 be 73 84 5e be 99 c0 85 be 8c 56 55 bf
       -0.40927735 -0.21730213 -0.26123503 -0.83335185
000220 02 60 fa be 01 a7 e5 3e 89 c7 17 3f 32 52 61 be
       -0.48901373 0.44853976 0.5928884 -0.22004011
000230 00 98 cd be 6d d5 08 3e 4c bd 08 3f 10 88 f1 be
       -0.4015503 0.13362665 0.53413844 -0.4717412
000240 cc 3a 52 be 28 e5 33 3f c4 30 1c be e2 32 1a 3f
       -0.20530242 0.7027154 -0.15252978 0.6023389
000250 d6 b9 64 be 57 80 0a 3d e2 4f 34 3e 36 99 a2 be
       -0.22336516 0.0338138 0.17608598 -0.31757516
000260 18 dd 13 3f 1a a8 8a 3e 05 ed 23 3f 74 cf 4f bf
       0.5775924 0.27081376 0.6403354 -0.81175923
000270 10 1c 9e 3e 1a c5 8a be ca b6 8e be 6f 33 2d be
       0.30880785 -0.27103502 -0.27873832 -0.16914152
000280 77 17 32 be c5 90 cc be f6 91 36 bd c1 99 83 bc
       -0.17391764 -0.399542 -0.044572793 -0.016064527
000290 c1 30 4d 3e cb f5 8f be 4b 67 a8 3e 51 9e 23 3f
       0.2003813 -0.28117213 0.32891306 0.63913447
0002a0 78 f0 0d 3f b8 b3 a2 be 4b 7a be 3e fc 60 3f bf
       0.5544505 -0.3177774 0.37202677 -0.7475736
0002b0 ec 9c 8a be d9 65 aa 3e 32 75 05 3f ca 01 8d bf
       -0.27072847 0.3328083 0.5213195 -1.1016171
0002c0 cc c5 b3 3e f9 2d 06 3f 69 c4 a0 be b8 f7 6d 3d
       0.35111845 0.524139 -0.3139985 0.05809757
0002d0 01 dd 33 be 2e c1 d3 3e 3d b9 11 bf c7 10 d9 3d
       -0.17564775 0.41358322 -0.56923276 0.10598903
0002e0 7c 73 66 bd b4 93 8a 3e 59 ea cd 3d 57 7c bd bd
       -0.05626248 0.27065814 0.10054464 -0.092522316
0002f0 bc 3b 4a bf 05 01 e3 3e 2c af 0f be 2d 48 71 3e
       -0.789974 0.44336715 -0.14031667 0.23562689
000300 8d 68 46 be c9 dd 51 be 2c 53 12 3f 01 6d 29 3f
       -0.1937582 -0.2049476 0.5715816 0.6618195
000310 b9 ad f6 3d 36 a4 b5 3e c1 ce 67 3f 89 9a ab be
       0.12044854 0.35476846 0.90549856 -0.33516338
000320 e7 14 8d 3d b0 23 85 3d ad dc e2 3e 64 cc 1e 3f
       0.068887524 0.065009475 0.44308987 0.62030625
000330 09 eb fe 3d 4e e8 2c bd b2 44 ad 3e f6 32 62 bd
       0.12447173 -0.04221373 0.33841473 -0.05522438
000340 59 85 0a bd 19 97 91 3e
       -0.033818576 0.2843559

sequential_3/dense_11/MatMul f4 [4, 10]
000000 62 e1 2e 3f bd 15 3b 3f 35 e9 5f bf 60 9a 05 bf
       0.68312657 0.73080045 -0.8746522 -0.5218868
000010 0a d5 28 bf 78 3c 7a 3f aa 4f 05 bf b4 c0 bc 3e
       -0.6595007 0.9774852 -0.5207468 0.3686577
000020 e5 06 7a 3e 95 e4 55 3f a4 ae 52 3f 51 7f 3b bf
       0.24416693 0.83551913 0.8229773 -0.73241144
000030 34 c6 4a 3d 77 23 03 3f af 71 74 3f a3 ed 98 bc
       0.049505427 0.5122599 0.9548597 -0.018668002
000040 b9 47 95 be 02 6f 0a bf 86 6f 09 bf 0e f9 0f 3e
       -0.29156283 -0.54075634 -0.53685796 0.1405985
000050 4f bf 65 be d8 68 91 3e 22 28 2c 3e 9a ba 85 bf
       -0.2243626 0.28400302 0.16812184 -1.0447571
000060 81 0c 42 bf b6 4b a4 bf bc 00 34 3f 62 68 5d bf
       -0.7580033 -1.2835605 0.7031362 -0.864874
000070 4b 39 b3 bf 49 8f 79 bf 4e 2f b2 bf ec 8f c0 bf
       -1.400186 -0.9748426 -1.3920686 -1.5043921
000080 4e ed c2 bc 47 94 23 bf 3a ad 46 3d e2 2d 8e bf
       -0.023794796 -0.6389813 0.048505045 -1.1107752
000090 05 44 24 bf 75 66 75 3f 05 2e 18 3e ea 2a ea 3e
       -0.6416629 0.9585946 0.14861305 0.45735866
