model/keypoint_classifier/keypoint_classifier.tflite (tflite, 6544 bytes, 6 tensors)

sequential/dense/BiasAdd/ReadVariableOp f4 [20]
00000000: 9b1b 87be 4638 43bf 6c3e e6be 51d4 1fbf
00000010: e12d febe 0d99 67bf a00b 00bf c818 93bf
00000020: 113d 6dbf 3ebe acbe 737b 6fbf 2242 e7be
00000030: 3679 f4be a3fc c8be ee8a 78bf df2f d0bd
00000040: 7a8e 67bf 82b3 52bf 049d 2bbf 7868 c6be
-0.2638825 -0.7625774 -0.449695 -0.62433344 -0.49644378 -0.9046791 -0.5001774 -1.1491938
-0.92671305 -0.33738893 -0.93547744 -0.45167643 -0.47748727 -0.39255247 -0.9708699 -0.10165381
-0.90451777 -0.8230516 -0.6703646 -0.38751578

sequential/dense_2/BiasAdd/ReadVariableOp f4 [4]
00000000: 9ff2 f5be c309 30bd dfa9 133f 6ee0 bc3d
-0.48036668 -0.04297806 0.5768108 0.09222494

sequential/dense_1/BiasAdd/ReadVariableOp f4 [10]
00000000: 133f 223f d5af 323e acfb ab3c cfb4 913e
00000010: 2e56 923b b326 873e 3db9 7e3f f617 073f
00000020: 4eaf 0f3b 4a42 373f
0.63377494 0.17449887 0.02099403 0.28458259 0.00446584 0.26396713 0.995014 0.52770936
0.0021924558 0.71585524

sequential/dense/MatMul f4 [20, 42]
00000000: a4a8 7b3e d0e1 143e ab46 cdbc 36f0 203e
00000010: d8ad 10be 90cf 4e3e f13b cbbe f8ea 163e
00000020: d05c e5be e91a 723e bc83 b43d ab39 803e
00000030: aa9e 9d3d 94d9 fe3d 7ae5 9b3d dab0 b93c
00000040: 3def f83c c55b 76bd 5ebf 923a 9697 5f3e
00000050: 157f b63c 7615 c13d 5b69 703e cfa2 80bd
00000060: c230 af3e fd0a 0cbe 16ee 02be 64b2 563e
00000070: d937 94bc 8991 c93d b237 6f3e abd5 debe
00000080: 435b 013f 5857 28bf 1924 0abe ff15 5e3e
00000090: fcb9 babd d1cf 9b3c e8ba 6a3d fe9f 5cbe
000000a0: b9e1 943e 12ae 04bf 57db 10be 700b abbc
000000b0: dc1f 183e fbf5 823f f0ae 113e e013 bd3e
000000c0: a211 6e3e 9966 3c3e c109 3e3e e0fb 153e
000000d0: 90d4 b5ba f025 11bc 21a4 4d3d 43c4 163d
000000e0: 76f2 393b 17d3 e03d 45b4 3dbc 5f6f ad3d
000000f0: fc66 db3d 51f2 d8bc 2b6c 1b3c 79b3 a53c
00000100: ae6c debc d1fd 32be a1ad b4be cf05 b3be
00000110: 0fa6 803e 02bc c7bd ad33 11be 28d2 aabd
00000120: ecfe 72be 452a a5be 3e38 f9be 3bc3 83be
00000130: 2ab3 4e3e f9ec 08be 6637 4abe 641a 07be
00000140: e2ba ddbe 8e3e a6be f2e1 1ebf 5607 1dbf
00000150: 4723 85be 2632 64be cfa2 a73c fbc1 053f
00000160: 5a14 d23c efb1 603e 71fb 623d 10c0 333e
00000170: 71f5 8a3d 9d7e 2d3e 051f 50bc 55b0 4d3d
00000180: 9f5c 173c 4133 e13c 790f cebb 1212 973d
00000190: 152f 84bd df2c 8c3d a7db 133e 00f4 003d
000001a0: 208d e03c 0321 643d cb06 b4bd 7300 3cbc
000001b0: c83c 243d 846c a4bf 9baf 473e e450 e03c
000001c0: 4559 0fbd aea3 013d eb9d 2abe 14f5 12be
000001d0: 6d08 f03d 85cd 2fbe 9749 4b3e 83a6 223d
000001e0: 991c 74bd 304d 8d3d 0f46 24be 1c66 37bd
000001f0: d975 9ebe a34c c0be 0cdb 793e 7073 86be
00000200: ebac 8b3d 4915 cebe 1cc9 d5bc 1a1d 01bc
00000210: 0c18 3b3e f3f3 0dbd 29bb 673e 7b2b 7abd
00000220: 813d 4cbf 598e adbd ed86 1ebe 3979 8ebd
00000230: 5f48 b13d 1a30 7bbd cc6b 223e 366c 03bd
00000240: 6e5d 27bf 0897 35be 6540 0b3e 4945 a63b
00000250: cf5e 373d 7ecf a13d c6b7 18bd f4ca a63d
00000260: 5ec9 22bf 625d 72be e772 8b3e 7e97 04bc
00000270: 0225 ce3d cfb7 933d 619c 293b f44e a53d
00000280: ff8c 2bbe 3e96 b1be 1f32 983e 549d a9bd
00000290: 972f 143e 3848 c23c ab86 84bb edd6 cf3d
000002a0: c026 54be d232 093e 1cb1 a1bd 0cf8 6e3d
000002b0: 8124 b4bd b8bf 54be 2dae 30be a156 7dbe
000002c0: 14a6 c0be f89c 7abe e274 33bc 0c09 303e
000002d0: 5197 4abd a42a e63b 5191 86bc cc3e d4bd
000002e0: b002 2e3c e8dc 09be 0b5d dfbd 5f3d 3e3e
000002f0: 5aa8 0fbc 9e17 23be 03ba 413d 8901 c1bb
00000300: 8434 df3c c6a0 a83e 8fd7 03be b098 2f3e
00000310: 87de 70bd 38a5 50be 6620 683e ce7e 553e
00000320: b02a 143f f77b 603f da2d 0cbe 038e 053e
00000330: 6fca a2bd d673 e5bd a40b 3d3e f540 093e
00000340: 1194 793e e593 213f 80b6 e03b 72f3 cfbd
00000350: 45b9 20be 7817 c43e f0e9 7e38 5a79 333d
00000360: 3c1f 163d 7497 c1bd 2ccf 0dbe 8eda 15bd
00000370: 8b1a 80be b2a1 d2ba 59ea ff3c be0e 043e
00000380: 023d ac3d c2c8 063e c31f f33d 28f6 fd3d
00000390: eed3 24be e3c7 dd3b ce19 cdbc 2fba 33bd
000003a0: f3c1 80be 01b2 4ebe 5b07 31bf 87bb c7be
000003b0: a10d 89bd ec5e dbbc 1be1 a03d fe8c ecbc
000003c0: 38f4 5abe a41d f4bd a090 5dbf da4d 05bf
000003d0: 215d 0b3e f822 8ebd 3446 3a3e 5b8f 09bd
000003e0: e9dc eb3d 1dc8 35be b192 67be ec5e 12be
000003f0: 30b7 85bd c04b fd3d 931f 6c3e 0308 fa3e
0.2457605 0.14539266 -0.025058111 0.15716633 -0.14128816 0.20196366 -0.3969417 0.14738071
-0.44797373 0.23643078 0.08814189 0.25043997 0.076962784 0.124438435 0.076121286 0.022667337
0.030387515 -0.060146112 0.0011195948 0.21835169 0.022277394 0.094279215 0.2347769 -0.06281053
0.34216887 -0.13676067 -0.12786135 0.20966488 -0.018093036 0.09842212 0.2336109 -0.4352239
0.5052988 -0.65758276 -0.13490333 0.21688078 -0.09117505 0.019019993 0.057307154 -0.21545407
0.29078463 -0.5182811 -0.14146172 -0.020879477 0.14855903 1.0231317 0.1422689 0.36929226
0.23248914 0.18398513 0.18558408 0.14646864 -0.0013872553 -0.008859143 0.050205354 0.036808264
0.0028373278 0.10977762 -0.011578624 0.08468508 0.10713002 -0.026482733 0.0094862385 0.02022718
-0.027151432 -0.17479636 -0.35288718 -0.3496537 0.25126693 -0.097526565 -0.14179869 -0.083408654
-0.23730057 -0.32258812 -0.48675722 -0.25734887 0.20185533 -0.13371648 -0.19747695 -0.13193661
-0.43306643 -0.324696 -0.62063515 -0.6133932 -0.26003477 -0.22284755 0.020463375 0.52249116
0.02564447 0.21942876 0.055415574 0.17553735 0.067850955 0.1694283 -0.012702708 0.05021699
0.009238391 0.02749026 -0.0062884656 0.073764935 -0.06454293 0.06844496 0.1443926 0.031482697
0.027411044 0.055695545 -0.08790358 -0.0114747165 0.040097028 -1.2845616 0.19500582 0.027382322
-0.034997243 0.031650238 -0.16661803 -0.14351302 0.11720357 -0.17168243 0.19852291 0.03970958
-0.059597585 0.06899488 -0.1604235 -0.044775113 -0.30949286 -0.3755847 0.24399966 -0.26259947
0.06820091 -0.40250614 -0.026096873 -0.0078804735 0.18270892 -0.034656476 0.2262999 -0.061076622
-0.7978135 -0.08474416 -0.15481158 -0.06956715 0.08656382 -0.06132517 0.15861434 -0.03208562
-0.6537694 -0.17733395 0.13598783 0.0050741774 0.04476815 0.07900904 -0.037284635 0.08144179
-0.6358851 -0.23668435 0.272361 -0.008092759 0.100656524 0.07212793 0.0025880563 0.080717
-0.16753004 -0.34684938 0.2972574 -0.08281961 0.14471279 0.023716077 -0.004044374 0.10148416
-0.20717907 0.13398293 -0.07895109 0.058342025 -0.08796025 -0.2077626 -0.17253943 -0.24740078
-0.37626708 -0.24473941 -0.01095316 0.17190951 -0.049460713 0.007024126 -0.016426714 -0.1036354
0.010620758 -0.13463175 -0.109064184 0.18578099 -0.0087681655 -0.15926978 0.047296535 -0.0058900756
0.027246721 0.3293516 -0.12875198 0.1714809 -0.05880597 -0.20375526 0.22668609 0.20849153
0.57877636 0.87689155 -0.13689366 0.13042454 -0.079487674 -0.112037346 0.18461472 0.13403685
0.24372889 0.63116294 0.006857693 -0.101538554 -0.15695675 0.38299155 6.077619e-05 0.0438169
0.03665088 -0.094527155 -0.13848561 -0.036585383 -0.2502025 -0.0016069917 0.031239675 0.12896249
0.08410074 0.1316252 0.118712924 0.12400466 -0.1609647 0.006768213 -0.025036719 -0.04387873
-0.25147972 -0.2018509 -0.6915185 -0.3901026 -0.06692053 -0.02677866 0.078554355 -0.028875824
-0.21382225 -0.11919716 -0.86548805 -0.5207192 0.13609745 -0.069402635 0.18190843 -0.03358398
0.11516745 -0.17752118 -0.22614552 -0.14294022 -0.06529081 0.12367964 0.2305892 0.48834237

sequential/dense_1/MatMul f4 [10, 20]
00000000: c6e6 f13e 0e6e 3c3e 27dc e43e 2784 c13e
00000010: 14e7 95be 4a64 91bc 6dbc 593e 4fcf 1b3f
00000020: 4adb b73d c6b7 583f 10d2 3f3f 9b13 d9bc
00000030: 1fd8 003d 14d5 303f 1eb6 a7be a06a 1d3f
00000040: ff87 87be ea63 8dbe fce6 183f 0454 d6bd
00000050: 7a7f d7bd a0dd 1ebe 53e9 cbbd eb0f 163f
00000060: ed2a f4be 8056 b2bd 335b 80be d005 03bf
00000070: d603 373e ac77 d73b 3a0a 26bd 9a31 3cbe
00000080: a6b5 b23e a438 f0bd d971 acbe e7a3 9ebe
00000090: 7d82 adbe 0c7c 453e a18f 0a3f c3a0 6dbe
000000a0: 79e4 aa3e 80c7 373f 51e9 d13d ba39 a7be
000000b0: f182 2d3f 7387 2d3f f0fb 253f 223b f4bd
000000c0: deeb e4bd a1b2 1b3e ea8a fbbe 4534 e53e
000000d0: ef01 013f b743 893e 5240 9d3e fe7e 163e
000000e0: e718 6f3d b700 edbd bffa a5ba 5fd8 633f
000000f0: ef37 77bf a71a 8cbe d71b 2fbf 09d4 143f
00000100: 7a2c 403e e311 3ebf 0a26 163f 2ff1 19bf
00000110: 27d3 e5be b083 77bf e634 b03e 991d f2be
00000120: fffb 86be 82f6 a2bf bc9a 3f3f 8317 7cbf
00000130: 87dd 453f d860 c73e 3323 febe fd49 38bf
00000140: e37b 5a3e 2035 183e 51f9 853e 7840 0cbd
00000150: 8302 cb3e 9704 5d3f 8ff6 813e 1a48 f93e
00000160: c32d 613f ccd3 7dbe 8b8e 233f 4c3a f8bc
00000170: a7fd 533e d60b 073f 2169 023e 219b 163f
00000180: 84db 9a3d 0606 e8bc a02c 1e3f 2fc2 f73e
00000190: 7a0a 9c3e d338 21bf 1148 4e3f ee51 e8be
000001a0: 16fb 5f3e a3ee 38be 25b3 e73e 808a bbbc
000001b0: 9419 2c3e 34af 7c3e b861 c0be dc6d 59bf
000001c0: 520d d3be 1ce4 913e 4426 ee3d 32c4 bcbc
000001d0: e7f9 e3be 1444 eebe 3307 7d3c 50c0 8abf
000001e0: 4172 7abf af0d a5bf 53be dbbf ac14 943e
000001f0: 529d 86be ce2c 87bf 971e 30bf 0ce6 9ebe
00000200: 7cbf cdbe cc41 b93e 1c52 71be 9f5a c1be
00000210: 3e3f f4bc 2e70 2fbf cd63 a2bf 31a1 d13e
00000220: c9d7 08bf 5a3f 02bf e86c ad3c 3c2c d8bf
00000230: c7c4 bd3e 58a1 ad3e 84f0 543e 70ab 30bf
00000240: dd0c 4e3f f93e b63e c7fd 1ebd 40d5 7dbd
00000250: 406a b03e 58c0 103f bc6b 4dbf b826 423f
00000260: 21bb 87bf 4d07 163f e418 74be afd0 563e
00000270: de33 9cbf b2a4 87bf b889 e13d 5f1e 083f
00000280: 828e b93e deeb 333f 5c52 bd3e 7c84 203d
00000290: 5948 113f 4291 e23e f077 643f de68 f63e
000002a0: ad60 5b3f 4161 a53c dda5 033f b5c1 c53e
000002b0: b9d0 063f 317c 8e3e 4fe6 823e 24c0 373e
000002c0: a01b 6a3f b7e2 d23e 4c6f 363e b188 64be
000002d0: f44f 593d dc32 eabd b007 95bd 4e04 353f
000002e0: 937b afbd 587b 29be 4fb9 30be aa48 593f
000002f0: 1eca d83d 08bc 183e d1ef 813f e3b5 0c3e
00000300: 83c2 163e f944 2dbc 7801 423c b235 013f
00000310: ec8f 4dbd d88d a83e 8d90 b1bf 8251 14be
0.4724638 0.18401358 0.44699213 0.37796137 -0.2927786 -0.017748017 0.21263285 0.608632
0.08977373 0.84655416 0.74929905 -0.026498606 0.03145611 0.6907513 -0.32756132 0.6149082
-0.26470944 -0.2761529 0.59727454 -0.104652435 -0.10522361 -0.1551423 -0.099566124 0.5861804
-0.47689 -0.08707905 -0.2506958 -0.51180744 0.17872557 0.0065755453 -0.040537097 -0.18378296
0.34904212 -0.11729553 -0.3368061 -0.30984423 -0.33888617 0.19285601 0.5412541 -0.23205857
0.33377436 0.7178879 0.1024958 -0.3266123 0.67777926 0.67784804 0.6483755 -0.11925341
-0.111778006 0.1520486 -0.4912942 0.4476644 0.50393575 0.26809475 0.30713135 0.14696881
0.058373358 -0.11572402 -0.0012663229 0.8900203 -0.9656972 -0.27364084 -0.68401855 0.5813604
0.18766966 -0.7424604 0.58651793 -0.6013364 -0.4488766 -0.96685314 0.34415358 -0.47288206
-0.26364133 -1.2731478 0.7484548 -0.98473376 0.7729115 0.38941073 -0.4963623 -0.719879
0.21336322 0.14864016 0.26166776 -0.03424117 0.39650354 0.8633513 0.25383422 0.48687822
0.8796045 -0.24787825 0.6388938 -0.030301236 0.2070223 0.52752435 0.12735416 0.5883046
0.075614005 -0.028323185 0.6178684 0.48390338 0.30476743 -0.6297733 0.80578715 -0.45375007
0.21873125 -0.18059783 0.45253864 -0.02289319 0.16806632 0.2467621 -0.37574553 -0.8493326
-0.412211 0.28494346 0.11628392 -0.023042772 -0.44526598 -0.46536314 0.015443611 -1.0839939
-0.9783059 -1.2894801 -1.7167457 0.2892202 -0.262919 -1.0560548 -0.68796676 -0.31034887
-0.40185153 0.36183012 -0.23566478 -0.3776445 -0.029815312 -0.6853055 -1.2686707 0.40943292
-0.5345426 -0.50877917 0.021170095 -1.6888499 0.37064192 0.33912158 0.20794874 -0.6901159
0.8048838 0.3559492 -0.03881624 -0.06197095 0.34456062 0.56543493 -0.80242515 0.7584033
-1.0603982 0.5860489 -0.2383762 0.20978044 -1.2203329 -1.0597136 0.11012596 0.5317134
0.36241537 0.7028178 0.36976898 0.039188847 0.5675102 0.44251448 0.8924551 0.48126882
0.8569439 0.020187976 0.5142496 0.3862435 0.52662235 0.27829126 0.25566337 0.1794439
0.914484 0.41188595 0.17815894 -0.22317769 0.053054765 -0.11435482 -0.07276857 0.70709693
-0.08568492 -0.16550958 -0.1725819 0.848765 0.10585426 0.14915478 1.0151311 0.1374126
0.14722638 -0.010575526 0.0118411705 0.5047256 -0.050186083 0.32920718 -1.3872238 -0.14484218

sequential/dense_2/MatMul f4 [4, 10]
00000000: a51c 1cbf 7adf 73bf 2880 573f 1496 75be
00000010: 1679 94be 3660 ce3f 7c8a 1bbf 2d1b 9e3f
00000020: e3d6 b83e 2b0d 8fbf cb20 bc3d 2014 793e
00000030: 34fd b4be d674 c3be a909 303f dde1 5dbf
00000040: 85d9 a5bf bd59 1bbf f9a6 2b3f 4557 d33e
00000050: b2a3 ac3e 3594 883d 8385 29bf 190d b3bf
00000060: cd2f e7be b22d 0bbf e883 7e3f a4c3 76bd
00000070: 1be1 69bf 72f6 11bf 0d6c 57bf 3436 953d
00000080: 396f dabf c887 843f 6068 debf e320 4cbf
00000090: b217 82bf 1836 a8bf 1fac f6bc f3e8 3c3e
-0.6098121 -0.95262873 0.84179926 -0.23983032 -0.2899863 1.6123111 -0.60758185 1.2352043
0.36101446 -1.1175894 0.09185942 0.24324083 -0.3534943 -0.38175076 0.6876474 -0.86672765
-1.2957007 -0.60683805 0.67051655 0.4127752 0.3371864 0.06668893 -0.6621935 -1.3988372
-0.45153657 -0.543666 0.9942002 -0.06024517 -0.9135911 -0.5701667 -0.8414925 0.07285729
-1.7065192 1.0353937 -1.7375603 -0.7973768 -1.0163481 -1.3141508 -0.03011137 0.18448238
